…
    print("N input features", D_in, "N output", D_out)


.. parsed-literal::

    Working dir is: /home/ed203246/data/pystatml/dl_mnist_pytorch
    Datasets shape {'train': torch.Size([60000, 28, 28]), 'val': torch.Size([10000, 28, 28])}
    N input features 784 N output 60000


LeNet
~~~~~

Dry run in debug mode to get the shape of the last convnet layer.

.. code:: ipython3

    model = LeNet5((1, 6, 16, 1, 120, 84, 10), debug=True)
    batch_idx, (data_example, target_example) = next(enumerate(train_loader))
    print(model)
    _ = model(data_example)


.. parsed-literal::

    LeNet5(
      (conv1): Conv2d(1, 6, kernel_size=(5, 5), stride=(1, 1), padding=(2, 2))
      (conv2): Conv2d(6, 16, kernel_size=(5, 5), stride=(1, 1))
      (fc1): Linear(in_features=1, out_features=120, bias=True)
      (fc2): Linear(in_features=120, out_features=84, bias=True)
      (fc3): Linear(in_features=84, out_features=10, bias=True)
    )
    ### DEBUG: Shape of last convnet= torch.Size([16, 5, 5]) . FC size= 400


Set First FC layer to 400

.. code:: ipython3

    model = LeNet5((1, 6, 16, 400, 120, 84, 10)).to(device)
    optimizer = optim.SGD(model.parameters(), lr=0.01, momentum=0.5)
    criterion = nn.NLLLoss()
    
    # Explore the model
    for parameter in model.parameters():
…
    train Loss: 0.7807 Acc: 75.65%
    val Loss: 0.1586 Acc: 94.96%
    
    Epoch 2/4
    ----------
    train Loss: 0.0875 Acc: 97.33%
    val Loss: 0.0776 Acc: 97.47%
    
    Epoch 4/4
    ----------
    train Loss: 0.0592 Acc: 98.16%
    val Loss: 0.0533 Acc: 98.30%
    
    Training complete in 1m 29s
    Best val Acc: 98.30%



.. image:: dl_cnn_cifar10_pytorch_files/dl_cnn_cifar10_pytorch_17_1.png


MiniVGGNet
~~~~~~~~~~

.. code:: ipython3

    model = MiniVGGNet(layers=(1, 16, 32, 1, 120, 84, 10), debug=True)
    
    print(model)
    _ = model(data_example)


.. parsed-literal::

    MiniVGGNet(
      (conv11): Conv2d(1, 16, kernel_size=(3, 3), stride=(1, 1))
      (conv12): Conv2d(16, 16, kernel_size=(3, 3), stride=(1, 1))
      (conv21): Conv2d(16, 32, kernel_size=(3, 3), stride=(1, 1))
      (conv22): Conv2d(32, 32, kernel_size=(3, 3), stride=(1, 1), padding=(1, 1))
      (fc1): Linear(in_features=1, out_features=120, bias=True)
      (fc2): Linear(in_features=120, out_features=84, bias=True)
      (fc3): Linear(in_features=84, out_features=10, bias=True)
    )
    ### DEBUG: Shape of last convnet= torch.Size([32, 5, 5]) . FC size= 800


Set First FC layer to 800

.. code:: ipython3

    model = MiniVGGNet((1, 16, 32, 800, 120, 84, 10)).to(device)
    optimizer = optim.SGD(model.parameters(), lr=0.01, momentum=0.5)
    criterion = nn.NLLLoss()
    
    # Explore the model
    for parameter in model.parameters():
…
    print("Datasets shape:", {x: dataloaders[x].dataset.data.shape for x in ['train', 'val']})
    print("N input features:", D_in, "N output:", D_out)


.. parsed-literal::

    Working dir is: /home/ed203246/data/pystatml/dl_cifar10_pytorch
    Files already downloaded and verified
    Datasets shape: {'train': (50000, 32, 32, 3), 'val': (10000, 32, 32, 3)}
    N input features: 3072 N output: 10


LeNet
~~~~~

.. code:: ipython3

    model = LeNet5((3, 6, 16, 1, 120, 84, D_out), debug=True)
    batch_idx, (data_example, target_example) = next(enumerate(train_loader))
    print(model)
    _ = model(data_example)


.. parsed-literal::

    LeNet5(
      (conv1): Conv2d(3, 6, kernel_size=(5, 5), stride=(1, 1), padding=(2, 2))
      (conv2): Conv2d(6, 16, kernel_size=(5, 5), stride=(1, 1))
      (fc1): Linear(in_features=1, out_features=120, bias=True)
      (fc2): Linear(in_features=120, out_features=84, bias=True)
      (fc3): Linear(in_features=84, out_features=10, bias=True)
    )
    ### DEBUG: Shape of last convnet= torch.Size([16, 6, 6]) . FC size= 576


Set 576 neurons to the first FC layer

SGD with momentum ``lr=0.001, momentum=0.5``

.. code:: ipython3

    model = LeNet5((3, 6, 16, 576, 120, 84, D_out)).to(device)
    optimizer = optim.SGD(model.parameters(), lr=0.001, momentum=0.5)
    criterion = nn.NLLLoss()
    
    # Explore the model
…
    train Loss: 1.1724 Acc: 57.89%
    val Loss: 1.1244 Acc: 59.17%
    
    Epoch 15/24
    ----------
    train Loss: 1.0987 Acc: 60.98%
    val Loss: 1.0153 Acc: 63.82%
    
    Epoch 20/24
    ----------
    train Loss: 1.0355 Acc: 63.01%
    val Loss: 0.9901 Acc: 64.90%
    
    Training complete in 7m 30s
    Best val Acc: 66.88%



.. image:: dl_cnn_cifar10_pytorch_files/dl_cnn_cifar10_pytorch_38_1.png


MiniVGGNet
~~~~~~~~~~

.. code:: ipython3

    model = MiniVGGNet(layers=(3, 16, 32, 1, 120, 84, D_out), debug=True)
    print(model)
    _ = model(data_example)


.. parsed-literal::

    MiniVGGNet(
      (conv11): Conv2d(3, 16, kernel_size=(3, 3), stride=(1, 1))
      (conv12): Conv2d(16, 16, kernel_size=(3, 3), stride=(1, 1))
      (conv21): Conv2d(16, 32, kernel_size=(3, 3), stride=(1, 1))
      (conv22): Conv2d(32, 32, kernel_size=(3, 3), stride=(1, 1), padding=(1, 1))
      (fc1): Linear(in_features=1, out_features=120, bias=True)
      (fc2): Linear(in_features=120, out_features=84, bias=True)
      (fc3): Linear(in_features=84, out_features=10, bias=True)
    )
    ### DEBUG: Shape of last convnet= torch.Size([32, 6, 6]) . FC size= 1152


Set 1152 neurons to the first FC layer

SGD with large momentum and learning rate

.. code:: ipython3

    model = MiniVGGNet((3, 16, 32, 1152, 120, 84, D_out)).to(device)
    optimizer = optim.SGD(model.parameters(), lr=0.01, momentum=0.9)
    criterion = nn.NLLLoss()
    
…
