…
    ----> 8 D_in = np.prod(dataloaders["train"].dataset.data.shape[1:])
          9 D_out = len(dataloaders["train"].dataset.targets.unique())
         10 print("Datasets shapes:", {
         11       x: dataloaders[x].dataset.data.shape for x in ['train', 'test']})


    NameError: name 'np' is not defined


LeNet
~~~~~

Dry run in debug mode to get the shape of the last convnet layer.

.. code:: ipython3

    model = LeNet5((1, 6, 16, 1, 120, 84, 10), debug=True)
    batch_idx, (data_example, target_example) = next(
        enumerate(dataloaders["train"]))
    print(model)
    _ = model(data_example)


.. parsed-literal::

    LeNet5(
      (conv1): Conv2d(1, 6, kernel_size=(5, 5), stride=(1, 1), padding=(2, 2))
      (conv2): Conv2d(6, 16, kernel_size=(5, 5), stride=(1, 1))
      (fc1): Linear(in_features=1, out_features=120, bias=True)
      (fc2): Linear(in_features=120, out_features=84, bias=True)
      (fc3): Linear(in_features=84, out_features=10, bias=True)
    )
    ### DEBUG: Shape of last convnet= torch.Size([16, 5, 5]) . FC size= 400


Set First FC layer to 400

.. code:: ipython3

    model = LeNet5((1, 6, 16, 400, 120, 84, 10)).to(device)
    optimizer = optim.SGD(model.parameters(), lr=0.01, momentum=0.5)
    criterion = nn.NLLLoss()
    
    # Explore the model
    for parameter in model.parameters():
…
    train Loss: 0.8882 Acc: 72.55%
    val Loss: 0.1889 Acc: 94.00%
    
    Epoch 2/4
    ----------
    train Loss: 0.0865 Acc: 97.30%
    val Loss: 0.0592 Acc: 98.07%
    
    Epoch 4/4
    ----------
    train Loss: 0.0578 Acc: 98.22%
    val Loss: 0.0496 Acc: 98.45%
    
    Training complete in 0m 55s
    Best val Acc: 98.45%



.. image:: dl_cnn_cifar10_pytorch_files/dl_cnn_cifar10_pytorch_19_1.png


MiniVGGNet
~~~~~~~~~~

.. code:: ipython3

    model = MiniVGGNet(layers=(1, 16, 32, 1, 120, 84, 10), debug=True)
    
    print(model)
    _ = model(data_example)


.. parsed-literal::

    MiniVGGNet(
      (conv11): Conv2d(1, 16, kernel_size=(3, 3), stride=(1, 1))
      (conv12): Conv2d(16, 16, kernel_size=(3, 3), stride=(1, 1))
      (conv21): Conv2d(16, 32, kernel_size=(3, 3), stride=(1, 1))
      (conv22): Conv2d(32, 32, kernel_size=(3, 3), stride=(1, 1), padding=(1, 1))
      (fc1): Linear(in_features=1, out_features=120, bias=True)
      (fc2): Linear(in_features=120, out_features=84, bias=True)
      (fc3): Linear(in_features=84, out_features=10, bias=True)
    )
    ### DEBUG: Shape of last convnet= torch.Size([32, 5, 5]) . FC size= 800


Set First FC layer to 800

.. code:: ipython3

    model = MiniVGGNet((1, 16, 32, 800, 120, 84, 10)).to(device)
    optimizer = optim.SGD(model.parameters(), lr=0.01, momentum=0.5)
    criterion = nn.NLLLoss()
    
    # Explore the model
    for parameter in model.parameters():
…
        batch_size_train=100, batch_size_test=100)
    
    # Info about the dataset
    D_in = np.prod(dataloaders["train"].dataset.data.shape[1:])
    D_out = len(set(dataloaders["train"].dataset.targets))
    print("Datasets shape:", {
          x: dataloaders[x].dataset.data.shape for x in dataloaders.keys()})
    print("N input features:", D_in, "N output:", D_out)

LeNet
~~~~~

.. code:: ipython3

    model = LeNet5((3, 6, 16, 1, 120, 84, D_out), debug=True)
    batch_idx, (data_example, target_example) = next(enumerate(train_loader))
    print(model)
    _ = model(data_example)


.. parsed-literal::

    LeNet5(
      (conv1): Conv2d(3, 6, kernel_size=(5, 5), stride=(1, 1), padding=(2, 2))
      (conv2): Conv2d(6, 16, kernel_size=(5, 5), stride=(1, 1))
      (fc1): Linear(in_features=1, out_features=120, bias=True)
      (fc2): Linear(in_features=120, out_features=84, bias=True)
      (fc3): Linear(in_features=84, out_features=10, bias=True)
    )
    ### DEBUG: Shape of last convnet= torch.Size([16, 6, 6]) . FC size= 576


Set 576 neurons to the first FC layer

SGD with momentum ``lr=0.001, momentum=0.5``

.. code:: ipython3

    model = LeNet5((3, 6, 16, 576, 120, 84, D_out)).to(device)
    optimizer = optim.SGD(model.parameters(), lr=0.001, momentum=0.5)
    criterion = nn.NLLLoss()
    
    # Explore the model
…
    train Loss: 1.2274 Acc: 55.93%
    val Loss: 1.1575 Acc: 58.78%
    
    Epoch 15/24
    ----------
    train Loss: 1.1399 Acc: 59.28%
    val Loss: 1.0712 Acc: 61.84%
    
    Epoch 20/24
    ----------
    train Loss: 1.0806 Acc: 61.62%
    val Loss: 1.0334 Acc: 62.69%
    
    Training complete in 5m 25s
    Best val Acc: 65.14%



.. image:: dl_cnn_cifar10_pytorch_files/dl_cnn_cifar10_pytorch_41_1.png


MiniVGGNet
~~~~~~~~~~

.. code:: ipython3

    model = MiniVGGNet(layers=(3, 16, 32, 1, 120, 84, D_out), debug=True)
    print(model)
    _ = model(data_example)


.. parsed-literal::

    MiniVGGNet(
      (conv11): Conv2d(3, 16, kernel_size=(3, 3), stride=(1, 1))
      (conv12): Conv2d(16, 16, kernel_size=(3, 3), stride=(1, 1))
      (conv21): Conv2d(16, 32, kernel_size=(3, 3), stride=(1, 1))
      (conv22): Conv2d(32, 32, kernel_size=(3, 3), stride=(1, 1), padding=(1, 1))
      (fc1): Linear(in_features=1, out_features=120, bias=True)
      (fc2): Linear(in_features=120, out_features=84, bias=True)
      (fc3): Linear(in_features=84, out_features=10, bias=True)
    )
    ### DEBUG: Shape of last convnet= torch.Size([32, 6, 6]) . FC size= 1152


Set 1152 neurons to the first FC layer

SGD with large momentum and learning rate

.. code:: ipython3

    model = MiniVGGNet((3, 16, 32, 1152, 120, 84, D_out)).to(device)
    optimizer = optim.SGD(model.parameters(), lr=0.01, momentum=0.9)
    criterion = nn.NLLLoss()
    
…
